…
2 layers convolution applied before being fed into the discriminator
classname Conv2d
in random conv
classname BatchNorm2d
in random batchnorm
classname ReLU
classname Conv2d
in random conv
classname BatchNorm2d
in random batchnorm
classname ReLU
classname Sequential
classname InputTransformation
classname Conv2d
in random conv
classname LeakyReLU
classname Conv2d
in random conv
classname BatchNorm2d
in random batchnorm
classname LeakyReLU
classname Conv2d
in random conv
classname Sequential
classname NLayerDiscriminator
---------- Networks initialized -------------
ResnetGenerator_3d_conv(
  (model): Sequential(
    (0): Conv3d(26, 26, kernel_size=(3, 3, 3), stride=(1, 1, 1), padding=(1, 1, 1), groups=26)
    (1): BatchNorm3d(26, eps=1e-05, momentum=0.1, affine=True, track_running_stats=True)
    (2): ReLU(inplace=True)
  )
)
Total number of parameters: 780
ResnetGenerator(
  (model): Sequential(
    (0): Conv2d(26, 64, kernel_size=(7, 7), stride=(1, 1), padding=(3, 3))
    (1): BatchNorm2d(64, eps=1e-05, momentum=0.1, affine=True, track_running_stats=True)
    (2): ReLU(inplace=True)
    (3): Conv2d(64, 192, kernel_size=(3, 3), stride=(2, 2), padding=(1, 1))
    (4): BatchNorm2d(192, eps=1e-05, momentum=0.1, affine=True, track_running_stats=True)
    (5): ReLU(inplace=True)
    (6): Conv2d(192, 576, kernel_size=(3, 3), stride=(2, 2), padding=(1, 1))
    (7): BatchNorm2d(576, eps=1e-05, momentum=0.1, affine=True, track_running_stats=True)
    (8): ReLU(inplace=True)
    (9): ResnetBlock(
      (conv_block): Sequential(
        (0): Conv2d(576, 576, kernel_size=(3, 3), stride=(1, 1), padding=(1, 1))
        (1): BatchNorm2d(576, eps=1e-05, momentum=0.1, affine=True, track_running_stats=True)
        (2): ReLU(inplace=True)
        (3): Dropout(p=0.5, inplace=False)
        (4): Conv2d(576, 576, kernel_size=(3, 3), stride=(1, 1), padding=(1, 1))
        (5): BatchNorm2d(576, eps=1e-05, momentum=0.1, affine=True, track_running_stats=True)
      )
    )
    (10): ResnetBlock(
      (conv_block): Sequential(
        (0): Conv2d(576, 576, kernel_size=(3, 3), stride=(1, 1), padding=(1, 1))
        (1): BatchNorm2d(576, eps=1e-05, momentum=0.1, affine=True, track_running_stats=True)
        (2): ReLU(inplace=True)
        (3): Dropout(p=0.5, inplace=False)
        (4): Conv2d(576, 576, kernel_size=(3, 3), stride=(1, 1), padding=(1, 1))
        (5): BatchNorm2d(576, eps=1e-05, momentum=0.1, affine=True, track_running_stats=True)
      )
    )
    (11): ResnetBlock(
      (conv_block): Sequential(
        (0): Conv2d(576, 576, kernel_size=(3, 3), stride=(1, 1), padding=(1, 1))
        (1): BatchNorm2d(576, eps=1e-05, momentum=0.1, affine=True, track_running_stats=True)
        (2): ReLU(inplace=True)
        (3): Dropout(p=0.5, inplace=False)
        (4): Conv2d(576, 576, kernel_size=(3, 3), stride=(1, 1), padding=(1, 1))
        (5): BatchNorm2d(576, eps=1e-05, momentum=0.1, affine=True, track_running_stats=True)
      )
    )
    (12): ResnetBlock(
      (conv_block): Sequential(
        (0): Conv2d(576, 576, kernel_size=(3, 3), stride=(1, 1), padding=(1, 1))
        (1): BatchNorm2d(576, eps=1e-05, momentum=0.1, affine=True, track_running_stats=True)
        (2): ReLU(inplace=True)
        (3): Dropout(p=0.5, inplace=False)
        (4): Conv2d(576, 576, kernel_size=(3, 3), stride=(1, 1), padding=(1, 1))
        (5): BatchNorm2d(576, eps=1e-05, momentum=0.1, affine=True, track_running_stats=True)
      )
    )
    (13): ResnetBlock(
      (conv_block): Sequential(
        (0): Conv2d(576, 576, kernel_size=(3, 3), stride=(1, 1), padding=(1, 1))
        (1): BatchNorm2d(576, eps=1e-05, momentum=0.1, affine=True, track_running_stats=True)
        (2): ReLU(inplace=True)
        (3): Dropout(p=0.5, inplace=False)
        (4): Conv2d(576, 576, kernel_size=(3, 3), stride=(1, 1), padding=(1, 1))
        (5): BatchNorm2d(576, eps=1e-05, momentum=0.1, affine=True, track_running_stats=True)
      )
    )
    (14): ResnetBlock(
      (conv_block): Sequential(
        (0): Conv2d(576, 576, kernel_size=(3, 3), stride=(1, 1), padding=(1, 1))
        (1): BatchNorm2d(576, eps=1e-05, momentum=0.1, affine=True, track_running_stats=True)
        (2): ReLU(inplace=True)
        (3): Dropout(p=0.5, inplace=False)
        (4): Conv2d(576, 576, kernel_size=(3, 3), stride=(1, 1), padding=(1, 1))
        (5): BatchNorm2d(576, eps=1e-05, momentum=0.1, affine=True, track_running_stats=True)
      )
    )
    (15): ConvTranspose2d(576, 192, kernel_size=(3, 3), stride=(2, 2), padding=(1, 1), output_padding=(1, 1))
    (16): BatchNorm2d(192, eps=1e-05, momentum=0.1, affine=True, track_running_stats=True)
    (17): ReLU(inplace=True)
    (18): ConvTranspose2d(192, 64, kernel_size=(3, 3), stride=(2, 2), padding=(1, 1), output_padding=(1, 1))
    (19): BatchNorm2d(64, eps=1e-05, momentum=0.1, affine=True, track_running_stats=True)
    (20): ReLU(inplace=True)
    (21): Conv2d(64, 26, kernel_size=(7, 7), stride=(1, 1), padding=(3, 3))
    (22): Tanh()
  )
)
Total number of parameters: 38230746
InputTransformation(
  (model): Sequential(
    (0): Conv2d(52, 52, kernel_size=(3, 3), stride=(2, 2), padding=(1, 1))
    (1): BatchNorm2d(52, eps=1e-05, momentum=0.1, affine=True, track_running_stats=True)
    (2): ReLU(inplace=True)
    (3): Conv2d(52, 52, kernel_size=(3, 3), stride=(2, 2), padding=(1, 1))
    (4): BatchNorm2d(52, eps=1e-05, momentum=0.1, affine=True, track_running_stats=True)
    (5): ReLU(inplace=True)
  )
)
Total number of parameters: 48984
NLayerDiscriminator(
  (model): Sequential(
    (0): Conv2d(52, 64, kernel_size=(5, 5), stride=(2, 2), padding=(2, 2))
    (1): LeakyReLU(negative_slope=0.2, inplace=True)
    (2): Conv2d(64, 128, kernel_size=(5, 5), stride=(1, 1), padding=(2, 2))
    (3): BatchNorm2d(128, eps=1e-05, momentum=0.1, affine=True, track_running_stats=True)
    (4): LeakyReLU(negative_slope=0.2, inplace=True)
    (5): Conv2d(128, 1, kernel_size=(5, 5), stride=(1, 1), padding=(2, 2))
  )
)
Total number of parameters: 291649
-----------------------------------------------
model [cGANModel] is working
create auxiliary web directory /mnt/Files/XIauxiliary/XIcodes/Python/python3.6/pytorch1.2/XIfontGAN_yankunxi/XIFONTGAN_05_github/xifontgan/checkpoints/Capitals64_cGAN/web...
#training images = 9000 / 9122
LOADING from 0
setting learning rate: 0.000200
…
